Week_2/my_model.pt (torch, 18492 bytes, 47 tensors)

base.mean f4 [2]
00000000: 0000 0000 0000 0000
0.0 0.0

base.std f4 [2]
00000000: 0000 803f 0000 803f
1.0 1.0

transformations.0.mask f4 [2]
00000000: 0000 803f 0000 0000
1.0 0.0

transformations.0.scale_net.0.weight f4 [8, 2]
00000000: 68d6 2fbe 6b32 543c 5495 a1be 47c8 fcbe
00000010: c317 76be 97ca 49be 6a04 f7be 9058 7d3e
00000020: 9a4b 3d3f 47f4 1f3f 1335 52bf 84c0 3cbe
00000030: fb33 d8be 202b c5be f83c dbbe f5fd be3e
-0.17171633 0.012951474 -0.3155924 -0.4937155 -0.24032502 -0.19706188 -0.48245555 0.24740815
0.73943484 0.6248211 -0.82112235 -0.18432814 -0.42227158 -0.38509464 -0.42819953 0.3730313

transformations.0.scale_net.0.bias f4 [8]
00000000: 43fc 793f ac09 253c 3b87 543e 20e1 d63e
00000010: 45c7 28bf 9944 c2be 013a c9be e1aa 51bc
0.97650546 0.010073107 0.20754711 0.41968632 -0.6592906 -0.3794296 -0.39302066 -0.012797088

transformations.0.scale_net.2.weight f4 [2, 8]
00000000: 5ad9 06bd b3a2 073d 3cfa 8e3d 444c 3cbe
00000010: c0dc 20be 7b1d e7bd 563f a8be 93b9 58be
00000020: 91ee 09bf 1bb1 093f f4f4 32be 6385 4bbf
00000030: 6ae8 2cbf 2214 a03e ffcd ed3e 3018 e33d
-0.032922126 0.033114146 0.06981322 -0.18388468 -0.1570921 -0.1128492 -0.3286082 -0.21164541
-0.5387965 0.53785866 -0.17476255 -0.79500407 -0.67542136 0.3126536 0.46446225 0.11088598

transformations.0.scale_net.2.bias f4 [2]
00000000: 05fb c2bb cc13 08bf
-0.005950334 -0.5315521

transformations.0.translation_net.0.weight f4 [8, 2]
00000000: 0a89 5fbf 9a59 02bf 0db7 13bf ca54 27bf
00000010: a7b7 26bf cecf 1fbe a421 f33e f134 193f
00000020: 5c73 16bf 5746 b63e 8362 95be a14e 23be
00000030: 9438 303f 451f 1abf ebf9 533f 2740 2c3d
-0.8731848 -0.5091797 -0.5770119 -0.6536375 -0.6512398 -0.15606615 0.47486603 0.5984641
-0.58769774 0.3560054 -0.2917672 -0.15947963 0.6883633 -0.60203964 0.8280322 0.042053368

transformations.0.translation_net.0.bias f4 [8]
00000000: a8e2 f53e e943 cfbe 0d14 6c3e 24e3 16bf
00000010: 5a41 3a3f ccd8 b43e dcf7 98be 6c6e 01bf
0.48024487 -0.404815 0.23054524 -0.5894034 0.7275597 0.35321653 -0.29876602 -0.50559115

transformations.0.translation_net.2.weight f4 [2, 8]
00000000: 1169 6fbe 8b68 2c3e f277 3b3e c5f2 28be
00000010: 031a 943e ee79 29be 6991 113d 643d 913e
00000020: a575 1b3f 3ce1 53be 0a54 6b3e 3681 0abf
00000030: 3762 3fbe d553 c4be 71c2 b33e a29c 353f
-0.23379923 0.16836755 0.18307474 -0.16498859 0.28926095 -0.16550419 0.035539065 0.2836715
0.60726386 -0.20691389 0.22981277 -0.5410341 -0.1868981 -0.3834521 0.35109285 0.7094213

transformations.0.translation_net.2.bias f4 [2]
00000000: def6 8cbe ef6c 853e
-0.27532095 0.26059672

transformations.1.mask f4 [2]
00000000: 0000 0000 0000 803f
0.0 1.0

transformations.1.scale_net.0.weight f4 [8, 2]
00000000: 5e2d 30bf cda8 c0be aa85 a4be 63cb f73e
00000010: 271f 0cbe 6331 923e 0f08 75bd 0b61 19be
00000020: f5eb 333f d1b4 42be bdaf a4be 4265 e03e
00000030: f597 f5be 824c 993e c4de 1a3f 915f 8c3e
-0.68819225 -0.37628785 -0.32133228 0.4839736 -0.13683759 0.28553304 -0.05982214 -0.14978425
0.70281917 -0.19014288 -0.32165328 0.43827254 -0.47967497 0.29941183 0.60496163 0.2741666

transformations.1.scale_net.0.bias f4 [8]
00000000: 7183 06bf 00b3 223e 414f 3a3f 6ed3 25bf
00000010: 4379 1bbf 86cf cf3d 4403 e5be 5dff e43d
-0.52544314 0.15888596 0.7277718 -0.6477574 -0.60731906 0.10147004 -0.44729054 0.11181519

transformations.1.scale_net.2.weight f4 [2, 8]
00000000: 6e77 993e 3c2a e8be 3a59 bfbd 28a1 503e
00000010: 1eff 8cbe a357 06bf efab 083f 418e a4be
00000020: 177b b13e f87e 9fbe 6901 e83d 1937 6c3e
00000030: 0c57 4dbe 4849 513e 6acc cbbd 9cb2 a4be
0.2997393 -0.45344722 -0.093431905 0.20373976 -0.2753839 -0.52477473 0.5338735 -0.3213978
0.34664223 -0.31151557 0.11328394 0.23067893 -0.20052737 0.20438111 -0.09951098 -0.32167518

transformations.1.scale_net.2.bias f4 [2]
00000000: a842 023e 0097 223e
0.1272074 0.15877914

transformations.1.translation_net.0.weight f4 [8, 2]
00000000: c698 babd d099 d33d fdb7 323f f456 e83c
00000010: 593d 733e acca 0dbf 9db3 32bf 777d 013e
00000020: 52b2 10bf 7095 ca3e b22b e8be 0d88 7cbf
00000030: 9d47 d9be 2d3c 6e3f 5741 20bf 7606 a63e
-0.091111705 0.10332072 0.69811994 0.028361775 0.23753871 -0.5538738 -0.6980532 0.12645517
-0.56522095 0.39567137 -0.45345837 -0.98645097 -0.4243745 0.9306057 -0.625997 0.32426804

transformations.1.translation_net.0.bias f4 [8]
00000000: cd33 c9be 9579 683b 8da0 2cbd 0712 c9be
00000010: 6acc 2a3f 2f24 413f d594 3fbe 98a6 3b3d
-0.39297333 0.003547286 -0.0421453 -0.39271566 0.6671816 0.75445837 -0.18709119 0.045813173

transformations.1.translation_net.2.weight f4 [2, 8]
00000000: 214d 9b3e 35d5 403d 1797 ee3e 5a6d a43e
00000010: 7d6d 4abd 650a 01bf 0d0f ff3e 62b0 113e
00000020: b212 26be e2a2 383e 1a90 40be 2bf7 d4bc
00000030: 7532 5dbe 23ec 863e 4855 513e ddfd 8d3e
0.30332282 0.04707833 0.46599647 0.3211468 -0.049420822 -0.50406486 0.4981617 0.14227441
-0.16218069 0.18030885 -0.1880497 -0.025996765 -0.21601279 0.26352033 0.20442688 0.27732745

transformations.1.translation_net.2.bias f4 [2]
00000000: f679 5a3d 8055 a3be
0.053338967 -0.3190117

transformations.2.mask f4 [2]
00000000: 0000 803f 0000 0000
1.0 0.0

transformations.2.scale_net.0.weight f4 [8, 2]
00000000: b56b 8dbf feb1 163f cb3a c3bd 8771 2b3f
00000010: 0513 6abd 58ec a53e 6dce f93d fc9a adbd
00000020: 8ccc 253e 8c40 6bbd 408a 56bf 4fde c83e
00000030: b008 e43e 4601 843e d24e e63e 3091 34bf
-1.1048495 0.58865345 -0.09532698 0.66970104 -0.057147045 0.32406878 0.12197576 -0.084768265
0.1619131 -0.057434604 -0.838047 0.39232108 0.44537878 0.25782222 0.4498201 -0.7053404

transformations.2.scale_net.0.bias f4 [8]
00000000: efa2 0abe 69a5 15bf a12f ed3e 76d9 fcbe
00000010: 9803 30bf 46c4 0b3f 3d2b 773c 91d8 493f
-0.13538717 -0.5845552 0.463254 -0.4938466 -0.68755484 0.54596364 0.015085992 0.7884608

transformations.2.scale_net.2.weight f4 [2, 8]
00000000: e4eb 7e3e 232f 9b3e e8f6 aebe a57a bcbd
00000010: 69f3 e5bd 1a58 a9be 1b81 1f3e 9809 5e3e
00000020: bbe0 5e3f f268 213e b144 d5be b6b9 913e
00000030: f80e f23d 9042 4fbf c807 893e 5963 47be
0.24894673 0.303094 -0.3417275 -0.0920308 -0.112280674 -0.3307503 0.15576594 0.21683347
0.8706166 0.1576269 -0.4165397 0.28462 0.11819261 -0.8096094 0.2676375 -0.19471492

transformations.2.scale_net.2.bias f4 [2]
00000000: a62d 3abd 6d61 1ebe
-0.04545369 -0.15466852

transformations.2.translation_net.0.weight f4 [8, 2]
00000000: 8c42 a5be e7c8 85be 7a20 05bf 4635 b1be
00000010: da7f 8cbf 50b5 0ebe 647c 0bbf bbb9 c7be
00000020: f2ab 423e 7442 233f 4d53 71bd f2a1 f5bd
00000030: cda5 ebbe 8269 10bf a9a8 37bf e784 27bf
-0.32277334 -0.2612984 -0.5200268 -0.34610957 -1.0976517 -0.13936353 -0.5448668 -0.3900889
0.19010904 0.63773274 -0.058917332 -0.11993779 -0.46024933 -0.5641099 -0.7174173 -0.6543717

transformations.2.translation_net.0.bias f4 [8]
00000000: 4a60 743e 9b96 c63e 111d ef3e 2041 d03e
00000010: 27f4 063f b565 c3be 76d5 4cbf 2732 0a3f
0.23864856 0.38786778 0.46701863 0.40674686 0.52716297 -0.38163534 -0.80013216 0.53982776

transformations.2.translation_net.2.weight f4 [2, 8]
00000000: 58b0 443e 5688 2dbc 02d1 17be db9d e4bd
00000010: 3b93 b4be b182 2dbe a479 733e f901 7bbe
00000020: fec9 0bbf 96b8 1cbf ebc5 d83e 5e40 02bf
00000030: adb1 2bbe 49a0 473d e700 61be 1c93 0bbf
0.19207895 -0.010591587 -0.14825824 -0.11162921 -0.35268578 -0.16944386 0.23776871 -0.24512471
-0.5460509 -0.61219156 0.423385 -0.50879467 -0.16766997 0.048736844 -0.21973 -0.54521346

transformations.2.translation_net.2.bias f4 [2]
00000000: db4b 77be bf9a 943d
-0.2415003 0.07256078

transformations.3.mask f4 [2]
00000000: 0000 0000 0000 803f
0.0 1.0

transformations.3.scale_net.0.weight f4 [8, 2]
00000000: a99c e33e d353 173f bc93 febc d965 953e
00000010: fbf4 13bf d6cd 693f 016f a23c e3da 82be
00000020: d71b c63e 9f38 633d 8764 01be c73c 37bf
00000030: d0ce e6be a2dc 2e3e 755d 2cbf 76b5 21be
0.4445546 0.5911228 -0.031076305 0.29179266 -0.57795686 0.91329706 0.019828321 -0.25557622
0.38693115 0.05547392 -0.12636004 -0.71577114 -0.4507966 0.17076352 -0.67330104 -0.15791878

transformations.3.scale_net.0.bias f4 [8]
00000000: a8b4 e3be fddc adbe d758 ea3e 3b58 edbd
00000010: 183f 383f 9b4d 4f3f 9990 913e 341a 93bd
-0.44473767 -0.33957663 0.45770904 -0.11589094 0.71971273 0.8097779 0.28430632 -0.07182732

transformations.3.scale_net.2.weight f4 [2, 8]
00000000: bf3f ffbd 130f 353e a54d 293d a6b0 613e
00000010: ef1c cabe fa43 6fbe d25a 133c e429 343e
00000020: 773a 79be 2e90 f93d c077 893e 8527 42be
00000030: a080 1cbd 89e8 55be 57d2 293d 0805 36be
-0.124633305 0.17681532 0.041333813 0.22040042 -0.394752 -0.23365775 0.008993821 0.17594105
-0.24338709 0.12185703 0.26849174 -0.18960388 -0.038208604 -0.20889486 0.04146036 -0.17775357

transformations.3.scale_net.2.bias f4 [2]
00000000: 56ce 30be 548c a1be
-0.17266211 -0.31552374

transformations.3.translation_net.0.weight f4 [8, 2]
00000000: 55fc 10bf c984 19be 7fed 14bf 2cae 083e
00000010: bfb1 313f 439f 413f b021 e13e 8216 36be
00000020: a9a2 41bd ea45 213f 32e9 303f 8dc0 1c3f
00000030: 1744 403e 3045 71bf c698 9d3e 6d1c a03f
-0.5663503 -0.1499206 -0.5817489 0.13347691 0.69411844 0.7563364 0.43971014 -0.17782024
-0.047274265 0.62997305 0.6910583 0.6123131 0.18775974 -0.94246197 0.3078062 1.2508675

transformations.3.translation_net.0.bias f4 [8]
00000000: 8af8 123f ced0 733e 5cf0 9e3d f605 9fbe
00000010: a407 063f 3127 903e e7f6 d6bd aedf 85be
0.5741049 0.23810121 0.07760689 -0.31059235 0.5235541 0.281549 -0.10496312 -0.26147217

transformations.3.translation_net.2.weight f4 [2, 8]
00000000: f8ec 4a3e 7c9c bd3e 0e61 f93e f5b9 64be
00000010: 7729 893e 9706 e8bd d838 0d3f 931b 55bf
00000020: a2ca 86bc 24bd 543e 90f7 4a3e 9279 7e3c
00000030: 2f73 2a3e 912e 553e 13b0 0e3d 891e fd3d
0.19816959 0.3703345 0.4870686 -0.22336562 0.26789448 -0.11329382 0.5516486 -0.832452
-0.016454045 0.20775276 0.19821 0.015531914 0.16645502 0.20818545 0.034835886 0.1235934

transformations.3.translation_net.2.bias f4 [2]
00000000: 2556 25be 5f56 5ebe
-0.16146143 -0.21712635

transformations.4.mask f4 [2]
00000000: 0000 803f 0000 0000
1.0 0.0

transformations.4.scale_net.0.weight f4 [8, 2]
00000000: 1106 d9be 40ea f43e efd8 a7bc cfc6 82bd
00000010: a60f e73d a2fc 89be 615a 023e 9952 07bf
00000020: 3b05 153f b533 35bd f7d5 24bf 6872 1abe
00000030: acab ddbe 7492 07bf 348e 9a3e 4898 7f3e
-0.4238744 0.4783497 -0.020489184 -0.06385576 0.112822816 -0.26950556 0.1272979 -0.5286041
0.58211106 -0.044238765 -0.64388984 -0.15082705 -0.43295038 -0.52957845 0.30186617 0.24960434

transformations.4.scale_net.0.bias f4 [8]
00000000: 81f1 fb3e 1353 50be ed18 20bf 4a26 14bf
00000010: 912f 363f dc07 2e3e c2af b5be 16f3 2bbf
0.4920769 -0.2034419 -0.62538034 -0.57870924 0.7116633 0.16995186 -0.35485655 -0.67167795

transformations.4.scale_net.2.weight f4 [2, 8]
00000000: 429f 023c 2695 103c 539b 7e3e 8124 a6be
00000010: dd17 033e c874 d73d 4ef6 b03e 0c38 46be
00000020: aaf1 01bf bd2a fc3d 72d0 b0be 3186 903d
00000030: 6263 80be af90 933e b2d8 8b3e a48c 2a3e
0.00797254 0.008824622 0.24863939 -0.32449725 0.12802072 0.10520321 0.34562916 -0.19357318
-0.50759375 0.12312839 -0.3453403 0.07056845 -0.25075823 0.28821322 0.27313763 0.16655213

transformations.4.scale_net.2.bias f4 [2]
00000000: 87a9 163e 6ede c0be
0.14713107 -0.376697

transformations.4.translation_net.0.weight f4 [8, 2]
00000000: 13e0 5abc b5bc cabe 3e7b 773e df64 c43e
00000010: 403c 82bf 5de8 993e 0873 cbbe 7fda a03d
00000020: fca8 2c3f a5aa b13e 6c16 e3be c782 0fbf
00000030: 0934 e0be a089 08bf 7029 d63e b136 dfbe
-0.0133590875 -0.39597097 0.24168107 0.3835821 -1.0174637 0.30060092 -0.397362 0.07854175
0.6744535 0.34700504 -0.44353044 -0.56058925 -0.437897 -0.53335 0.4182849 -0.43596414

transformations.4.translation_net.0.bias f4 [8]
00000000: 98f9 043f fc12 dcbe 1490 da3e 7e37 833e
00000010: bbd5 dbbe 5e60 febd 1422 f1be 64c9 37be
0.5194335 -0.42983234 0.42688048 0.25628275 -0.429365 -0.12420724 -0.47096312 -0.17947918

transformations.4.translation_net.2.weight f4 [2, 8]
00000000: 9380 9bbe b641 a63e 5c70 803e 26f6 8dbe
00000010: d7a5 15be 2046 78be 7b49 b03e 022d 2dbe
00000020: 2545 e73d 1245 a0be cd82 103f dd72 0fbf
00000030: 4889 27bf ab93 4ebd 830b 8b3e 703a 323e
-0.30371532 0.32472008 0.25085723 -0.2772686 -0.14614044 -0.242455 0.3443106 -0.169117
0.11292485 -0.31302696 0.56449586 -0.5603464 -0.6544385 -0.050433796 0.2715722 0.17405105

transformations.4.translation_net.2.bias f4 [2]
00000000: 645d eabc 3f03 e73e
-0.028608985 0.45119664
